model.pt (torch, 239857 bytes, 8 tensors)

fc1.weight f4 [64, 784]
-0.012789054 0.022584852 0.029028825 -0.0054958593 -0.034717496 0.02502978 -0.008630323 -0.01468767
-0.0038837623 -0.030258134 0.029636921 0.00636779 0.0524267 0.06755718 0.082734525 0.07952184
-0.032505937 0.003485105 -0.016148265 -0.0076196706 0.021647591 -0.024338996 -0.034828693 0.01415177
-0.014545743 0.02150916 0.011437477 -0.029091274 -0.016583014 0.012572834 0.035546955 -0.03199732
0.038343247 -0.009861112 0.05683211 0.09817894 0.065961435 0.03721711 0.06446483 0.10166282
0.06325107 0.049000952 0.0036843778 0.0002801967 0.08302941 0.08248487 -0.011764331 -0.008871626
0.038005706 0.061184634 0.08199953 0.07334393 0.0134791145 0.0029487824 0.027376534 -0.0067405277
-0.0024720007 0.030978821 0.043369886 -0.035641864 0.09867781 0.02066075 0.13033365 0.102684885
0.16214935 0.10205697 0.15047236 0.12533788 0.18463771 0.13807829 0.18971482 0.10558619
0.112495214 0.1583371 0.091832764 0.094320334 0.1350495 0.105316214 0.09187088 0.12212586
0.047694914 0.041816913 -0.021767708 -0.013941821 0.022017587 0.010193016 0.109576926 0.031558614
0.08385491 0.091763765 0.107368916 0.19948702 0.14166091 0.068276785 0.062437963 0.08835535
0.210382 0.1230718 0.031850006 0.027972084 -0.011287513 -0.0050786813 -0.029453395 0.00010541125
-0.017317489 -0.01012684 0.07139415 -0.008113824 -0.0091418205 0.037686847 0.0006522668 -0.01616025
0.018468121 -0.0027230978 0.10827261 -0.01843048 0.043715656 0.1553749 0.21982984 0.12414179
0.10792615 0.17096663 0.17843811 0.18869698 0.2370392 0.124893494 0.067684226 -0.034182146
-0.019449387 0.005376993 -0.02166326 -0.058987588 -0.09134293 -0.073716484 -0.0026403915 -0.0032482273
0.019719822 0.012440838 -0.007898583 -0.02466071 -0.0026054212 0.015876353 0.104588315 0.08601435
0.072229005 0.10550747 0.08550346 0.06568181 0.008438243 0.048473418 0.082310155 0.03101016
0.030730488 0.0078261215 -0.06421848 -0.063251704 -0.01229905 -0.032460883 -0.014574728 -0.04170679
0.0338475 0.020155158 0.005699839 0.017518813 0.04203654 0.14113227 0.06556571 -0.02556478
0.024108322 0.04848706 0.004077837 -0.015126844 0.010865744 0.052021693 -0.014010383 -0.009584631
-0.069890544 -0.0057301736 -0.04576615 -0.090097494 -0.074967474 -0.062993735 -0.104916655 -0.14336331
-0.11154108 -0.1662753 -0.04170217 -0.061391596 -0.09037392 -0.10872164 -0.067491576 0.02736056
0.030164413 0.14052694 0.098762214 -0.010132374 0.02977938 0.024222586 0.018682007 -0.073954225
0.08040689 0.067444704 -0.046940643 -0.07898992 -0.06781663 -0.057276007 -0.04700641 -0.07810755
-0.10017885 -0.064532526 -0.07245861 -0.1772528 -0.15819027 -0.105042465 -0.015632529 -0.0127301775
-0.07469735 -0.03104842 -0.00435356 0.040500678 0.08448036 0.2160395 0.15644148 -0.0143041145
-0.04228283 0.030240761 0.06651205 0.07383065 0.098904185 0.04480338 -0.03202248 -0.06973987
-0.1079693 -0.05024411 -0.028359009 -0.069241665 -0.034214336 0.006950499 -0.05422928 -0.07236042
-0.08602303 0.03763888 0.046190206 0.07129639 0.11364452 0.082820386 0.11719919 0.10058518
0.19618735 0.233444 0.15824819 0.10140208 -0.0128570665 0.020282775 0.079773076 0.10305861
00000000: 2e89 51bc de03 b93c dccd ed3c 9c16 b4bb
00000010: ef33 0ebd 410b cd3c 3366 0dbc 8ea4 70bc
00000020: b886 7ebb e8df f7bc 21c9 f23c e5a8 d03b
00000030: 61bd 563d 6b5b 8a3d b870 a93d 59dc a23d
00000040: f224 05bd 5c66 643b 5e49 84bc 6eae f9bb
00000050: 4a56 b13c 9362 c7bc 88a8 0ebd d3dc 673c
00000060: 4551 6ebc fa33 b03c 4164 3b3c d350 eebc
00000070: 1ad9 87bc 4afe 4d3c af99 113d 9f0f 03bd
00000080: cf0d 1d3d 8090 21bc c9c8 683d 0a12 c93d
00000090: ca16 873d f870 183d 2306 843d 9934 d03d
000000a0: c789 813d 39b5 483d 9a75 713b 5de7 9239
000000b0: 530b aa3d d4ed a83d 2ebf 40bc 4c5a 11bc
000000c0: dfab 1b3d bd9c 7a3d 5fef a73d 5835 963d
000000d0: 81d7 5c3c 5c40 413b c144 e03c a5df dcbb
000000e0: 4a01 22bb 4cc7 fd3c 9fa4 313d 34fd 11bd
000000f0: 9717 ca3d bc40 a93c 2f76 053e 744c d23d
00000100: 7b0a 263e 3f03 d13d 6d15 1a3e 9358 003e
00000110: ab11 3d3e 6564 0d3e 9a44 423e 933d d83d
00000120: e463 e63d 1f23 223e d112 bc3d 052b c13d
00000130: 6b4a 0a3e 07b0 d73d cd26 bc3d 1f1d fa3d
00000140: be5b 433d 3648 2b3d 3152 b2bc 3c6c 64bc
00000150: 3a5e b43c 9c00 273c de69 e03d 9b43 013d
00000160: 20bc ab3d a4ee bb3d 3ce4 db3d 5346 4c3e
00000170: 8f0f 113e b3d4 8b3d f3be 7f3d a6f3 b43d
00000180: 616e 573e 110d fc3d 2775 023d b625 e53c
00000190: 43ef 38bc 116b a6bb 3f48 f1bc 3c10 dd38
000001a0: 68dd 8dbc 0ceb 25bc 1937 923d d8ef 04bc
000001b0: 93c7 15bc 865d 1a3d e2fc 2a3a 8062 84bc
000001c0: 754a 973c 0076 32bb 08be dd3d 85fb 96bc
000001d0: 300f 333d 991a 1f3e 131b 613e 0d3e fe3d
000001e0: 6308 dd3d e011 2f3e 7bb8 363e c839 413e
000001f0: 67ba 723e 29c8 ff3d 079e 8a3d 9402 0cbd
00000200: 5254 9fbc 7d31 b03b 2677 b1bc f89c 71bd
00000210: 0112 bbbd abf8 96bd 6b0a 2dbb 36e0 54bb
00000220: 778b a13c a8d4 4b3c 0f69 01bc 4205 cabc
00000230: b7bf 2abb 200f 823c 6632 d63d 4b28 b03d
00000240: cdec 933d 4d14 d83d 701c af3d 2f84 863d
00000250: 8e40 0a3c 108c 463d 3a92 a83d 0509 fe3c
00000260: 81be fb3c 2239 003c fa84 83bd 1c8a 81bd
00000270: f481 49bc b4f5 04bd d7ca 6ebc bdd4 2abd
00000280: ada3 0a3d 6e1c a53c b7c5 ba3b 9d83 8f3c
00000290: 822e 2c3d fa84 103e 5147 863d 3b6d d1bc
000002a0: d17e c53c 5e9a 463d 609f 853b 95d6 77bc
000002b0: 3c06 323c b314 553d ce8b 65bc db08 1dbc
000002c0: c622 8fbd 2ec4 bbbb 4975 3bbd 0985 b8bd
000002d0: 8c88 99bd dc02 81bd 8bde d6bd d5cd 12be
000002e0: a66f e4bd 1244 2abe e5cf 2abd c175 7bbd
000002f0: f615 b9bd 74a9 debd 0639 8abd 4123 e03c
00000300: 5c1b f73c 4be6 0f3e d843 ca3d 4202 26bc
00000310: e3f3 f33c 726e c63c 020b 993c 5075 97bd
00000320: 5eac a43d 7320 8a3d d544 40bd 78c5 a1bd
00000330: 72e3 8abd 3f9a 6abd cb89 40bd daf6 9fbd
00000340: 922a cdbd a129 84bd 2e65 94bd c281 35be
00000350: a1fc 21be 8120 d7bd ca0f 80bc 3c92 50bc
00000360: edfa 98bd 4259 febc 4fa8 8ebb 0ae4 253d
00000370: 0a04 ad3d 7539 5d3e 3232 203e ce5b 6abc
00000380: c330 2dbd 79bb f73c 7837 883d 8634 973d
00000390: 478e ca3d c083 373d 012a 03bd c7d3 8ebd
000003a0: 021f ddbd c5cc 4dbd 2751 e8bc 93ce 8dbd
000003b0: 5524 0cbd 03c1 e33b 861f 5ebd b331 94bd
000003c0: d82c b0bd 3a2b 1a3d f131 3d3d d703 923d
000003d0: 75be e83d bc9d a93d 2106 f03d 9aff cd3d
000003e0: 56e5 483e f20b 6f3e d00b 223e e5ab cf3d
000003f0: 72a6 52bc 1028 a63c 1160 a33d 6410 d33d

fc1.bias f4 [64]
0.053352267 0.12811358 0.068572894 -0.11224171 0.025123106 0.06577091 0.010179031 0.06775678
0.02613008 -0.013806802 -0.04721106 0.015322083 -0.046847768 0.0033259634 0.04619141 0.1180536
0.040041573 -0.040121194 0.067200944 -0.023062302 -0.072582014 0.02372264 -0.112637386 0.053711835
0.008761135 0.08338028 -0.07078569 -0.07355729 -0.011010383 -0.0023048206 0.10303451 0.042482894
-0.01735154 -0.0144838905 0.008707609 -0.004498071 0.0039766273 -0.030234754 0.018547758 0.05619065
0.08809225 0.046152752 0.09613136 -0.061518956 0.054017585 -0.054876413 0.023664454 0.058686417
0.16064374 0.013358676 -0.081853636 0.064816155 0.14651604 0.014494153 0.04714185 0.03317642
-0.10195277 0.09411096 -0.009490212 -0.05294028 0.11876311 -0.111823596 0.09006212 0.18251348
00000000: e887 5a3d 3530 033e f26f 8c3d fbde e5bd
00000010: f9ce cd3c e6b2 863d f3c5 263c 11c4 8a3d
00000020: c00e d63c ed35 62bc 6260 41bd 7909 7b3c
00000030: 72e3 3fbd 68f8 593b 3433 3d3d 16c6 f13d
00000040: a202 243d 1f56 24bd a6a0 893d 27ed bcbc
00000050: e1a5 94bd fb55 c23c 6eae e6bd f100 5c3d
00000060: dd8a 0f3c 48c3 aa3d 16f8 90bd 34a5 96bd
00000070: e564 34bc 790c 17bb c203 d33d 8b02 2e3d
00000080: d124 8ebc d74d 6dbc 5caa 0e3c 8e64 93bb
00000090: 5e4e 823b e0ae f7bc 78f1 973c 2b28 663d
000000a0: b669 b43d ab0a 3d3d 85e0 c43d 4dfb 7bbd
000000b0: 8b41 5d3d 17c6 60bd f5db c13c 2b61 703d
000000c0: cb7f 243e 59de 5a3c e1a2 a7bd 55be 843d
000000d0: 4d08 163e e278 6d3c d017 413d ffe3 073d
000000e0: 9dcc d0bd 3fbd c03d d67c 1bbc e8d7 58bd
000000f0: 133a f33d c503 e5bd 7d72 b83d d0e4 3a3e

fc2.weight f4 [64, 64]
0.1774947 0.22062999 0.24697614 -0.15304755 0.11767278 0.035356995 -0.0023998695 0.009042826
-0.1050399 -0.09287344 -0.3188432 -0.045408532 -0.13422072 0.0856936 0.22268629 0.18176982
0.012471288 -0.08069463 -0.07440991 0.07016462 -0.087165505 0.04459418 0.020628434 0.07584213
-0.016970003 0.037168216 -0.12897226 0.06957758 0.093368 -0.10303074 0.35806328 -0.04981337
0.13073683 -0.025079973 -0.3502013 -0.16199553 -0.008926864 0.004027942 -0.036690883 0.075348474
0.30200475 0.04285025 -0.030494478 -0.036757547 0.10193933 -0.1960132 0.2784003 -0.46425325
0.28433797 0.3029989 -0.3345 0.28195232 0.22217725 0.04349285 -0.0021552402 0.06504116
-0.22782575 0.11821245 -0.0073229847 0.12570404 0.14296547 -0.2936236 0.4489413 0.2957947
0.029946834 -0.14643067 0.056233782 0.029487807 -0.43518385 -0.057550706 -0.054107454 -0.12545556
-0.20552681 -0.020426484 -0.16424763 0.03346907 0.010575189 0.15594062 -0.0074803345 -0.023366781
-0.015049718 0.17077138 -0.18301238 -0.041342765 -0.02943824 -0.25003424 0.17223597 0.18962038
-0.01520089 0.17165993 -0.0068645063 0.07723796 0.14685817 0.09393356 -0.36472073 -0.16816011
0.030980922 -0.06735368 -0.18600467 0.09267739 0.043286745 -0.06965236 0.08555894 0.013933536
-0.043720234 0.03651052 0.14232157 -0.051739726 0.15100111 0.25008076 -0.43169424 -0.021412946
-0.09430459 -0.13398047 0.07046576 -0.042278122 -0.22214498 0.14183664 0.06606573 -0.019186545
0.2546944 0.12830836 -0.10178669 -0.018291343 -0.08916803 0.042138353 -0.23564886 -0.038158346
0.098937355 0.09062579 0.2587159 0.070137925 -0.113479376 -0.17062312 0.0888716 0.0812974
-0.1881504 -0.14371155 -0.33305195 0.07224951 0.02348856 -0.030824736 0.121704824 0.1437262
0.034591187 -0.011511818 -0.2109888 0.06475395 -0.13452217 -0.30341777 -0.09112485 0.17238754
0.0014316377 0.13752931 0.000479273 -0.006911208 0.03039082 -0.023126926 0.1775392 -0.01919903
-0.09758937 -0.049161285 0.028491296 -0.017320158 0.059505563 -0.15272768 0.31719732 0.0074179117
-0.00738014 -0.07160449 0.16341157 -0.0008364587 0.12592795 -0.076805115 -0.22058013 -0.06284916
0.0232237 0.031141521 0.09677184 0.24600576 0.16792843 0.09174782 -0.03540232 -0.08778977
-0.029433733 0.31008688 0.062165964 0.085971594 -0.08467644 -0.010955985 0.28414294 0.06509834
0.1180461 -0.06707689 0.06900089 -0.027741453 0.21053016 0.00029454476 0.036001638 -0.10435623
0.124133766 0.24852917 0.07688492 -0.016170729 0.0060591917 -0.037641257 0.0022521226 -0.012227866
-0.13140103 0.12852283 -0.10286674 -0.037074193 -0.2604725 0.23325834 0.08726191 -0.015243184
0.09557034 0.13539149 -0.056485683 -0.018169815 -0.09744753 -0.13400897 0.013899782 0.23552735
0.010587814 0.054570533 0.021470372 0.105379 -0.091737635 -0.101532176 -0.36001536 0.19043075
-0.30330044 -0.12332427 0.10348698 -0.10933585 0.1519908 -0.18190925 -0.12554222 -0.18004197
-0.31782472 -0.15617354 -0.05294658 -0.35287476 0.0068198643 0.02089683 0.0034692893 0.11044768
-0.034138665 0.13268304 0.02962831 -0.28976762 0.20018005 0.0026458057 -0.13098505 0.12791644
00000000: 2cc1 353e d4ec 613e 50e7 7c3e 7fb8 1cbe
00000010: 6dfe f03d 7fd2 103d 2147 1dbb 5c28 143c
00000020: 291f d7bd 6e34 bebd 6a3f a3be 4cfe 39bd
00000030: 2871 09be 2080 af3d e007 643e de21 3a3e
00000040: 6054 4c3c 3a43 a5bd 3964 98bd 78b2 8f3d
00000050: d483 b2bd 63a8 363d f6fc a83c 1e53 9b3d
00000060: ad04 8bbc b33d 183d 4e11 04be b17e 8e3d
00000070: b937 bf3d c801 d3bd 1254 b73e 1b09 4cbd
00000080: e0df 053e 8474 cdbc 964d b3be 28e2 25be
00000090: fb41 12bc d4fc 833b 2e49 16bd 4d50 9a3d
000000a0: 5ea0 9a3e be83 2f3d 8ecf f9bc 158f 16bd
000000b0: 91c5 d03d afb7 48be 7c8a 8e3e 9ab2 edbe
000000c0: bf94 913e ac22 9b3e 9643 abbe 0e5c 903e
000000d0: 6f82 633e 8f25 323d ee3e 0dbb 4d34 853d
000000e0: 274b 69be 5e19 f23d a6f5 efbb 8fb8 003e
000000f0: 8a65 123e d555 96be a2db e53e 6772 973e
00000100: 1053 f53c ecf1 15be 6555 663d 6a90 f13c
00000110: 6bd0 debe 4aba 6bbd c79f 5dbd 6c77 00be
00000120: 9f75 52be 7155 a7bc 8830 28be dd16 093d
00000130: 8f43 2d3c e6ae 1f3e 981d f5bb b16b bfbc
00000140: 1893 76bc b1de 2e3e 9967 3bbe 0857 29bd
00000150: 7728 f1bc 7d04 80be a05e 303e d82b 423e
00000160: 270d 79bc 9fc7 2f3e a7ef e0bb f02e 9e3d
00000170: fd61 163e 3d60 c03d adbc babe 2a32 2cbe
00000180: b4cb fd3c baf0 89bd 0278 3ebe a5cd bd3d
00000190: 714d 313d e6a5 8ebd 8739 af3d 7c49 643c
000001a0: fd13 33bd 0e8c 153d bfbc 113e 09ed 53bd
000001b0: 09a0 1a3e 960a 803e 0707 ddbe 346a afbc
000001c0: c422 c1bd 2d32 09be 5a50 903d d32b 2dbd
000001d0: f979 63be a03d 113e 784d 873d 1a2d 9dbc
000001e0: 4e67 823e 4463 033e 8a75 d0bd bad7 95bc
000001f0: ba9d b6bd 4499 2c3d ef4d 71be ed4b 1cbd
00000200: ab9f ca3d 049a b93d 6976 843e 79a4 8f3d
00000210: e067 e8bd d4b7 2ebe 5002 b63d 407f a63d
00000220: 80aa 40be 1f29 13be c985 aabe 8df7 933d
00000230: 156b c03c 2884 fcbc 6140 f93d f62c 133e
00000240: 7daf 0d3d 109c 3cbc 730d 58be b89d 843d
00000250: 2ec0 09be 9359 9bbe aa9f babd 5c86 303e
00000260: caa5 bb3a 7cd4 0c3e ef46 fb39 6a77 e2bb
00000270: 2bf6 f83c ae74 bdbc d6cc 353e 4947 9dbc
00000280: f0dc c7bd 585d 49bd 9466 e93c 01e3 8dbc
00000290: 1bbc 733d a564 1cbe b067 a23e f411 f33b
000002a0: 1ad5 f1bb 60a5 92bd 5d55 273e cb45 5bba
000002b0: 42f3 003e 004c 9dbd c2df 61be 0fb7 80bd
000002c0: a13f be3c 811c ff3c 5030 c63d efe8 7b3e
000002d0: 6ef5 2b3e 48e6 bb3d 0602 11bd 1fcb b3bd
000002e0: 031f f1bc b5c3 9e3e bda1 7e3d e011 b03d
000002f0: d76a adbd bb80 33bc 2f7b 913e 4752 853d
00000300: 27c2 f13d 9c5f 89bd 5750 8d3d 0b42 e3bc
00000310: 3895 573e 216d 9a39 7476 133d b8b8 d5bd
00000320: d839 fe3d 6e7e 7e3e d775 9d3d 7a78 84bc
00000330: 2f8c c63b b82d 1abd 5998 133b 6357 48bc
00000340: fe8d 06be 7d9b 033e ccab d2bd 1cdb 17bd
00000350: a75c 85be 46db 6e3e 5fb6 b23d 8cbe 79bc
00000360: 62ba c33d 11a4 0a3e 885d 67bd ddd8 94bc
00000370: 9292 c7bd a639 09be e9bb 633c 152e 713e
00000380: 8378 2d3c 5a85 5f3d a2e2 af3c f2d0 d73d
00000390: f1e0 bbbd 1af0 cfbd ef53 b8be 4700 433e
000003a0: 324a 9bbe 6f91 fcbd fbf0 d33d 79eb dfbd
000003b0: 7aa3 1b3e 6b46 3abe 248e 00be ec5c 38be
000003c0: ecb9 a2be f5eb 1fbe 83de 58bd 00ac b4be
000003d0: 2b79 df3b d42f ab3c 045d 633b 6532 e23d
000003e0: fcd4 0bbd 10de 073e 12b7 f23c 6c5c 94be
000003f0: 00fc 4c3e 4165 2d3b f220 06be 87fc 023e

fc2.bias f4 [64]
0.25352487 -0.03669502 0.153973 0.026016548 0.13402644 -0.042137682 0.113326736 -0.06478782
-0.10648323 0.08830751 -0.11360005 0.04636545 0.062295575 0.05728142 -0.036168873 0.12178863
-0.07623903 0.0009511973 0.068004824 0.16365583 0.18421966 0.024763355 0.18293655 -0.06390059
-0.17039396 0.046614002 0.11719194 -0.009274379 0.14557968 0.09220866 -0.09988242 -0.13719715
0.04082431 0.18685709 -0.064824186 0.149933 -9.806769e-05 -0.08279151 0.029951576 0.23221086
0.06842322 0.12413266 -0.016119545 -0.08452655 0.2024783 -0.0096633965 0.20972383 0.07483508
0.058395736 -0.05868377 0.032200657 -0.08194595 0.145525 0.11946628 -0.009894382 0.070462056
0.05389306 0.039490942 0.14044403 0.09238276 -0.07188846 0.08687514 0.12657009 -0.11466439
00000000: 03ce 813e 844d 16bd 19ab 1d3e a820 d53c
00000010: 3a3e 093e 9098 2cbd d917 e83d 7aaf 84bd
00000020: e113 dabd 91da b43d 25a7 e8bd b3e9 3d3d
00000030: a529 7f3d ec9f 6a3d d025 14bd 516c f93d
00000040: 3523 9cbd c559 793a 1d46 8b3d 6595 273e
00000050: 14a4 3c3e 85dc ca3c b853 3b3e 50de 82bd
00000060: c17b 2ebe 53ee 3e3d 5402 f03d 91f3 17bc
00000070: d712 153e e5d7 bc3d 278f ccbd 697d 0cbe
00000080: 6437 273d 7757 3f3e 8bc2 84bd 0988 193e
00000090: b1a9 cdb8 988e a9bd 025d f53c afc8 6d3e
000000a0: 7921 8c3d 4439 fe3d 230d 84bc 411c adbd
000000b0: 7956 4f3e 3953 1ebc d8c1 563e 2243 993d
000000c0: 5e30 6f3d 655e 70bd d6e4 033d 47d3 a7bd
000000d0: 8104 153e bdaa f43d 0c1c 22bc 694e 903d
000000e0: f8be 5c3d 41c1 213d 8fd0 0f3e 2c33 bd3d
000000f0: 423a 93bd 98eb b13d 979b 013e 2ad5 eabd

fc3.weight f4 [64, 64]
0.08396699 0.06536382 -0.1462662 -0.012942915 -0.11293252 -0.05772645 -0.015449158 0.07680285
-0.018355878 -0.13185409 0.09705907 -0.09136191 -0.04646864 -0.012900293 0.056089528 0.0178547
0.010212102 -0.15059179 0.008010241 0.016442245 -0.052196555 0.055172108 -0.13633394 -0.018005189
-0.15115961 -0.10373596 -0.1758521 -0.009603297 -0.06294271 -0.061953135 0.011073187 -0.077075094
-0.039086167 0.020485273 -0.1565589 -0.021802511 -0.02338976 -0.034593545 -0.0127989 0.022184735
-0.107359365 -0.08419043 -0.053066514 -0.042684987 -0.06484364 -0.0059862137 -0.13470027 -0.06102212
-0.10954772 -0.14005971 0.036041945 0.04917532 0.019817721 -0.044360314 -0.015591315 -0.077714674
-0.12316257 -0.0862935 -0.13639477 0.077004574 0.08311659 -0.010571879 0.018507205 -0.09256599
0.06895475 0.21023822 0.111179374 0.17438374 0.16131 -0.10272404 -0.07453376 -0.053298645
-0.11207827 -0.12570032 0.15886302 0.042530723 0.10101004 0.019496886 -0.0031025647 0.1577331
-0.03918541 0.036161903 -0.04178544 -0.110442564 0.1572719 0.26708603 0.1768398 -0.03579254
0.102930926 -0.00062254415 -0.1465886 -0.02656512 0.09913702 -0.19383039 -0.16745616 0.040018935
-0.016606431 0.025089376 0.0067116055 -0.12379001 0.05124709 0.05396684 -0.34222668 0.033077717
0.17972678 0.40398565 0.03834668 -0.1309862 -0.027684862 -0.06487044 0.07131255 0.14995487
-0.022094343 -0.12054588 -0.043328423 -0.019842401 -0.060306802 -0.01597949 -0.022928666 -0.011727598
-0.13349947 -0.072046 0.06087991 0.023800371 0.06480177 0.0022809536 -0.23941514 0.16032049
-0.41173166 -0.08948912 -0.09368248 0.014252467 -0.07149633 0.15590698 0.20371194 -0.21487817
-0.078059934 -0.09670212 0.050191328 0.16269137 0.06290574 -0.13559589 0.1595297 -0.12072294
-0.06930986 0.0570234 -0.19021249 0.09493423 -0.027614402 -0.38994396 -0.06788268 0.10248742
0.040275622 0.11342896 0.12401958 -0.06485309 -0.16659607 0.09675917 -0.1773643 -0.15728293
0.011588145 0.13851188 0.03337797 0.072768055 -0.0075125834 -0.058295004 -0.16449526 0.079550646
-0.14923583 -0.17940807 -0.21381089 0.11759314 -0.0352592 0.11632995 -0.15426561 0.1019017
0.07887412 0.07430246 -0.005129644 0.23181416 0.044992942 0.20288984 -0.098684505 -0.028623518
-0.051919516 -0.13924539 -0.034763396 0.2105821 0.09067747 -0.11819298 0.019720482 -0.022634696
-0.10535854 0.22381943 -0.117190085 -0.078999646 -0.05765286 -0.01094669 0.30828747 0.019739116
0.20894384 0.14325613 0.052542854 0.15620098 0.1878789 0.08523203 -0.30239588 -0.054194298
-0.24057153 0.07095453 -0.25299722 -0.08689892 0.1392119 -0.20581889 -0.069750614 -0.17023121
0.25031027 0.15871404 -0.08096898 -0.11803001 0.13691968 0.08063231 0.27122402 0.12245835
-0.09069696 0.1467575 -0.094920516 0.086345494 0.050959233 -0.20554356 0.09631885 0.14837363
-0.0145172505 -0.023697557 -0.1585192 0.10393459 0.05256438 -0.12367621 0.14376266 -0.015610585
-0.15666167 -0.16978243 -0.10771842 -0.0576591 -0.052000247 0.13542746 0.016363123 0.05652826
0.19077516 -0.08935038 -0.14455752 0.16463783 0.23641984 0.052449927 0.0113780955 0.078868955
00000000: e3f6 ab3d 77dd 853d cfc6 15be 850e 54bc
00000010: 2a49 e7bd 9272 6cbd 771e 7dbc d04a 9d3d
00000020: 115f 96bc c204 07be e8c6 c63d f41b bbbd
00000030: e755 3ebd c05b 53bc 22be 653d 0544 923c
00000040: a950 273c bc34 1abe 633d 033c e3b1 863c
00000050: 0ecc 55bd 26fc 613d 209b 0bbe 9e7f 93bc
00000060: 96c9 1abe 8573 d4bd 9312 34be 2657 1dbc
00000070: 1ce8 80bd 92c2 7dbd 506c 353c 8cd9 9dbd
00000080: d118 20bd bbd0 a73c fa50 20be 2e9b b2bc
00000090: e29b bfbc f6b1 0dbd 7ab2 51bc c3bc b53c
000000a0: 3adf dbbd 086c acbd 465c 59bd 74d6 2ebd
000000b0: becc 84bd 0028 c4bb deee 09be 55f2 79bd
000000c0: 8e5a e0bd d06b 0fbe b8a0 133d 0f6c 493d
000000d0: c658 a23c 29b3 35bd b772 7fbc df28 9fbd
000000e0: a83c fcbd a6ba b0bd 12ab 0bbe 93b4 9d3d
000000f0: 0839 aa3d ad35 2dbc 6c9c 973c 3d93 bdbd
00000100: 2638 8d3d b048 573e 03b2 e33d a791 323e
00000110: 732e 253e fb60 d2bd 28a5 98bd ae4f 5abd
00000120: 4b89 e5bd 96b7 00be fdac 223e b234 2e3d
00000130: 5ade ce3d efb7 9f3c 6654 4bbb c984 213e
00000140: e180 20bd 811e 143d 3627 2bbd b62f e2bd
00000150: e30b 213e 80bf 883e 7e15 353e 339b 12bd
00000160: 73cd d23d 3b32 23ba 521b 16be 189f d9bc
00000170: 5a08 cb3d 797b 46be a179 2bbe e5ea 233d
00000180: 360a 88bc 3c88 cd3c 07ed db3b 9e85 fdbd
00000190: 78e8 513d 550c 5d3d 5638 afbe 807c 073d
000001a0: 4c0a 383e 35d7 ce3e 6911 1d3d 3f21 06be
000001b0: 5dcb e2bc cbda 84bd 500c 923d c58d 193e
000001c0: 32ff b4bc c2e0 f6bd 2579 31bd 888c a2bc
000001d0: 4404 77bd 6be7 82bc e6d4 bbbc 1c25 40bc
000001e0: 16b4 08be da8c 93bd 365d 793d fff8 c23c
000001f0: cab6 843d 0d7c 153b 3e29 75be 0e2b 243e
00000200: 7ece d2be 1246 b7bd 9adc bfbd 2e83 693c
00000210: ab6c 92bd 14a6 1f3e dd99 503e 0609 5cbe
00000220: e3dd 9fbd c30b c6bd 6c95 4d3d 9198 263e
00000230: bad4 803d a6d9 0abe c15b 233e 973d f7bd
00000240: 54f2 8dbd 5e91 693d 10c7 42be e16c c23d
00000250: 9937 e2bc bca6 c7be 1306 8bbd ede4 d13d
00000260: 0df8 243d 714d e83d fafd fd3d b2d1 84bd
00000270: 2998 2abe ac29 c63d fd9e 35be c70e 21be
00000280: 34dc 3d3c 0fd6 0d3e 57b7 083d 6b07 953d
00000290: 1e2c f6bb bec6 6ebd 7271 28be 73eb a23d
000002a0: 47d1 18be c0b6 37be 3ef1 5abe acd4 f03d
000002b0: f36b 10bd 663e ee3d cef7 1dbe d7b1 d03d
000002c0: c188 a13d e32b 983d 9316 a8bb b160 6d3e
000002d0: 854a 383d 5bc2 4f3e 1a1b cabd de7b eabc
000002e0: 8fa9 54bd 5896 0ebe 1064 0ebd d6a2 573e
000002f0: 1cb5 b93d 290f f2bd d98c a13c 666c b9bc
00000300: 38c6 d7bd ec30 653e 5b01 f0bd 91ca a1bd
00000310: 6825 6cbd bf59 33bc dbd7 9d3e edb3 a13c
00000320: 60f5 553e bcb1 123e 2d37 573d 26f3 1f3e
00000330: 5463 403e 218e ae3d a2d3 9abe d7fa 5dbd
00000340: 6258 76be 9c50 913d da88 81be 10f8 b1bd
00000350: 908d 0e3e 30c2 52be 69d9 8ebd 1751 2ebe
00000360: ab28 803e ef85 223e 11d3 a5bd b8b9 f1bd
00000370: ac34 0c3e 8d22 a53d e0dd 8a3e 72cb fa3d
00000380: 54bf b9bd 9947 163e b065 c2bd e8d5 b03d
00000390: a1ba 503d 037a 52be d142 c53d 42ef 173e
000003a0: c3d9 6dbc 6121 c2bc db52 22be a9db d43d
000003b0: bf4d 573d f449 fdbd 8536 133e 8ac3 7fbc
000003c0: eb6b 20be 72db 2dbe 7a9b dcbd f32b 6cbd
000003d0: 36fe 54bd 7fad 0a3e f50b 863c 2d8a 673d
000003e0: 905a 433e 55fd b6bd e306 14be d296 283e
000003f0: 0b18 723e bcd5 563d 316b 3a3c 0c86 a13d

fc3.bias f4 [64]
-0.033218503 0.1543437 0.11528332 0.089333795 -0.11105039 0.009662223 0.036795143 0.008876707
0.1226171 0.047420945 -0.08911809 0.27544355 -0.075516775 -0.15861367 0.121080816 0.0012927525
0.103376634 -0.06508852 -0.052803498 0.061081976 0.08189354 -0.031744104 0.027450193 -0.101927266
-0.04291272 -0.11782972 -0.05922317 0.049282487 0.0889086 0.16689412 0.0023751138 0.024991797
0.18659559 0.13360947 -0.016918203 0.11807518 -0.012069577 -0.08892547 0.012175168 0.047266107
-0.036023088 0.02716316 -0.10806266 -0.117461614 0.05199767 0.098153405 0.021723304 -0.101298556
0.05360733 0.103699684 0.1592979 -0.18084045 0.020420156 0.23493944 0.0789503 -0.0048742937
0.16755757 0.24881193 -0.030262982 0.04753573 0.00743178 0.07385376 -0.044352304 0.08054633
00000000: 2010 08bd 460c 1e3e a919 ec3d a3f4 b63d
00000010: 636e e3bd 4d4e 1e3c 81b6 163d 9c6f 113c
00000020: ad1e fb3d 773c 423d 8c83 b6bd f006 8d3e
00000030: 8aa8 9abd 9f6b 22be 38f9 f73d 9371 a93a
00000040: 21b7 d33d 214d 85bd 7b48 58bd 1831 7a3d
00000050: cdb7 a73d 1b06 02bd 3adf e03c 3ebf d0bd
00000060: 40c5 2fbd b550 f1bd ff93 72bd 6fdc 493d
00000070: b615 b63d 4be6 2a3e cca7 1b3b 99bb cc3c
00000080: ea12 3f3e ecd0 083e 0b98 8abc 66d1 f13d
00000090: 7abf 45bc 8f1e b6bd 5b7a 473c 1b9a 413d
000000a0: f28c 13bd 4685 de3c f54f ddbd b78f f0bd
000000b0: 82fb 543d a704 c93d 12f5 b13c 9e75 cfbd
000000c0: 5c93 5b3d 8060 d43d fd1e 233e 3d2e 39be
000000d0: 2c48 a73c f793 703e b2b0 a13d 8ab8 9fbb
000000e0: 3694 2b3e 8ec8 7e3e 13ea f7bc d3b4 423d
000000f0: 4a86 f33b a440 973d c3aa 35bd 79f5 a43d

fc4.weight f4 [10, 64]
-0.10611452 0.16161469 -0.15188074 0.069115415 0.02776691 0.06856899 0.052462365 -0.2509062
0.0039328607 -0.13578197 0.05919229 0.17563508 -0.051461857 -0.12137136 -0.0059798104 -0.09990475
-0.2719703 -0.20328349 -0.23951589 -0.1749468 -0.22493379 0.023773719 0.03569607 -0.060068823
-0.073889695 -0.033312712 0.22461504 -0.22065933 -0.015846321 0.026729425 -0.18222356 -0.18720005
-0.2458448 -0.18609346 -0.30829626 0.04474472 0.028670529 -0.006238878 -0.0897398 -0.24151555
0.11565631 -0.20082834 -0.14479944 0.2651981 -0.29580697 -0.31401613 -0.022906117 0.10210987
-0.27373528 0.112478 -0.2518839 0.03315323 -0.04637726 -0.09601252 0.049606122 0.16484766
0.20215979 -0.022694973 0.041588463 0.00019712787 -0.2554481 -0.06050793 -0.008964325 -0.4146682
-0.025340706 -0.21631458 -0.008071482 -0.008026914 -0.009990456 -0.44241774 -0.0952337 -0.10773076
-0.38357478 0.015965173 -0.0022884256 -0.31307578 -0.32740414 0.032121655 -0.32466084 -0.3074174
-0.029163515 -0.1141653 -0.36162758 -0.14521858 0.03592951 -0.045209683 -0.1472146 -0.037358247
0.057867136 0.016142095 0.029371943 -0.015461932 -0.06706307 -0.35863677 0.24054386 0.20981157
0.09328237 -0.27962717 -0.03650572 -0.18008234 -0.32767448 0.01712193 -0.17652492 0.16480811
-0.27905354 0.00797254 -0.28776827 -0.21947977 0.043261446 -0.009847179 -0.16488515 0.09672057
0.0922315 -0.32011497 0.16039447 -0.10745027 0.22415961 0.07044657 -0.043767367 -0.24903941
0.084639296 0.103618875 0.122834325 0.14744982 0.16603184 -0.11641788 0.14280239 0.13983616
-0.13756618 -0.10082435 0.14200044 -0.06716163 0.013278021 -0.38004103 -0.21903084 0.03408275
-0.042343523 0.086925 -0.07236222 -0.09099626 0.08916223 -0.17743137 -0.18665206 -0.009847973
0.15249875 0.11632307 -0.1774449 -0.26663622 -0.0945034 -0.108796634 -0.16351777 0.08510142
-0.0917172 0.113014735 0.010138625 -0.2437354 -0.090959705 0.19859342 0.10481118 -0.04926586
-0.113399796 -0.16496482 -0.29127896 0.036517464 0.0154468175 -0.041191246 -0.09399837 0.18329233
-0.16537438 -0.08952504 -0.22120522 -0.038482007 0.101845354 -0.03731795 -0.14539891 -0.0556999
0.13708344 -0.008476673 -0.0076835565 -0.057965565 -0.0594823 0.09838763 0.21910842 0.14475462
-0.19261165 -0.21291918 0.1525415 -0.12988707 -0.002542129 -0.09291526 -0.007562322 -0.13580093
0.015818356 -0.2631534 0.034809534 -0.13007161 -0.08411047 -0.43367976 -0.20482913 -0.04128784
-0.131799 0.07989759 -0.1030076 -0.028122582 0.11425106 -0.13903782 -0.14236288 -0.064795494
0.13993376 0.13117619 -0.52264917 0.18111496 0.16394256 -0.034846094 0.13154061 0.14641356
-0.041460205 -0.09112267 -0.115489714 -0.21568464 -0.20150885 -0.123915255 -0.042862765 0.11740367
0.118384786 -0.10378613 0.158447 -0.19116125 0.087060295 -0.039722823 -0.122734964 -0.31910884
0.03896338 0.12862408 -0.05124882 -0.0025931248 -0.14847948 0.027737357 0.11264751 -0.04474111
0.116971865 -0.037817508 -0.079788476 -0.07724639 -0.13116024 -0.010776313 0.1127157 0.018279556
-0.15593384 -0.21992837 -0.107728474 0.06337723 0.10580929 -0.12004932 0.11025179 -0.16921584
00000000: 9252 d9bd 527e 253e a086 1bbe 628c 8d3d
00000010: 6e77 e33c e66d 8c3d c7e2 563d c776 80be
00000020: 3adf 803b 6e0a 0bbe 9d73 723d afd9 333e
00000030: abc9 52bd 8c91 f8bd 49f2 c3bb dd9a ccbd
00000040: b13f 8bbe 8c29 50be a743 75be 4125 33be
00000050: 0b55 66be 1ac1 c23c 0b36 123d ba0a 76bd
00000060: 7b53 97bd e972 08bd 7c01 663e 85f4 61be
00000070: 25d0 81bc abf7 da3c d098 3abe 5fb1 3fbe
00000080: bdbe 7bbe 498f 3ebe 02d9 9dbe 3d46 373d
00000090: 75de ea3c 806f ccbb 80c9 b7bd da4f 77be
000000a0: 37dd ec3d f2a5 4dbe 4e46 14be 0cc8 873e
000000b0: 0374 97be b9c6 a0be 9ca5 bbbc fb1e d13d
000000c0: 0827 8cbe de5a e63d edf6 80be aecb 073d
000000d0: 15f6 3dbd 36a2 c4bd ca2f 4b3d d3cd 283e
000000e0: fa02 4f3e cfea b9bc aa58 2a3d 1cb4 4e39
000000f0: 18ca 82be 2ad7 77bd 1bdf 12bc 644f d4be
00000100: 5097 cfbc 9281 5dbe 403e 04bc 5183 03bc
00000110: 02af 23bc 9484 e2be e309 c3bd f2a1 dcbd
00000120: ea63 c4be 65c9 823c 69f9 15bb 784b a0be
00000130: 84a1 a7be ff91 033d f239 a6be d065 9dbe
00000140: 53e8 eebc 7fcf e9bd 4027 b9be 2eb4 14be
00000150: d22a 133d ca2d 39bd 6dbf 16be f604 19bd
00000160: 1706 6d3d 6d3c 843c 6e9d f03c 0b54 7dbc
00000170: 5d58 89bd 3d9f b7be 2151 763e d8d8 563e
00000180: d40a bf3d 4b2b 8fbe 0687 15bd 8167 38be
00000190: f3c4 a7be 4a43 8c3c f3c2 34be 75c3 283e
000001a0: 1be0 8ebe 429f 023c 5d56 93be 4ebf 60be
000001b0: ea32 313d 1056 21bc a7d7 28be 6f15 c63d
000001c0: dee3 bc3d 1ce6 a3be 733e 243e e30e dcbd
000001d0: 198a 653e 4b46 903d 6945 33bd 3004 7fbe
000001e0: 5e57 ad3d 2236 d43d 9090 fb3d 16fd 163e
000001f0: 4004 2a3e 7f6c eebd ca3a 123e 3631 0f3e
00000200: 26de 0cbe ff7c cebd 9068 113e 098c 89bd
00000210: 0e8c 593c bd94 c2be 9f49 60be 5b9a 0b3d
00000220: 6770 2dbd bc05 b23d a532 94bd 3f5c babd
00000230: b09a b63d 92b0 35be b821 3fbe 6459 21bc
00000240: a228 1c3e ca3a ee3d 1eb4 35be 8b84 88be
00000250: 008b c1bd c5d0 debd 3471 27be a749 ae3d
00000260: 3ad6 bbbd 4574 e73d 7a1c 263c c695 79be
00000270: 1549 babd 135c 4b3e 3ea7 d63d 00cb 49bd
00000280: 273e e8bd 8aec 28be 8422 95be 5693 153d
00000290: a614 7d3c 27b8 28bd 3882 c0bd fcb0 3b3e
000002a0: e757 29be e758 b7bd 9f83 62be 4f9f 1dbd
000002b0: 4c94 d03d b5da 18bd 74e3 14be 9425 64bd
000002c0: 9a5f 0c3e bee1 0abc 58c6 fbbb 4d6d 6dbd
000002d0: b6a3 73bd 747f c93d f55d 603e 8e3a 143e
000002e0: fd3b 45be 7c07 5abe d733 1c3e 1e01 05be
000002f0: d999 26bb 5b4a bebd 5bcd f7bb 660f 0bbe
00000300: 7f95 813c 0bbc 86be 7194 0e3d 7e31 05be
00000310: 1c42 acbd 460b debe babe 51be 701d 29bd
00000320: 51f6 06be 59a1 a33d a6f5 d2bd 5461 e6bc
00000330: 76fc e93d ee5f 0ebe 93c7 11be 80b3 84bd
00000340: cc4a 0f3e 0d53 063e 56cc 05bf 3376 393e
00000350: 8fe0 273e c7ba 0ebd 95b2 063e 70ed 153e
00000360: 2dd2 29bd 869e babd df85 ecbd 6fdc 5cbe
00000370: 5658 4ebe 48c7 fdbd de90 2fbd 5671 f03d
00000380: b973 f23d d38d d4bd ee3f 223e c6bf 43be
00000390: ab4c b23d 66b4 22bd 785c fbbd 3c62 a3be
000003a0: 1198 1f3d 08b6 033e 48ea 51bd 6af1 29bb
000003b0: 010b 18be 7439 e33c bdb3 e63d 7442 37bd
000003c0: f28e ef3d 88e6 1abd 2468 a3bd 5b33 9ebd
000003d0: df4e 06be 228f 30bc 7dd7 e63d 02bf 953c
000003e0: 1fad 1fbe e734 61be bfa0 dcbd eccb 813d
000003f0: 8bb2 d83d 6bdc f5bd b1cb e13d eb46 2dbe

fc4.bias f4 [10]
0.07834213 0.0064319735 -0.0007282103 -0.20852198 -0.08394745 0.23669773 0.033102892 -0.12041575
0.026113711 -0.07309112
00000000: d771 a03d 4ec3 d23b 5ee5 3eba c986 55be
00000010: a4ec abbd e460 723e e696 073d 889c f6bd
00000020: 6cec d53c ccb0 95bd
